…
I0820 20:00:52.421296  7922 net.cpp:322] The NetState phase (0) differed from the phase (1) specified by a rule in layer accuracy
I0820 20:00:52.421442  7922 net.cpp:58] Initializing net from parameters: 
name: "CIFAR10_quick"
state {
  phase: TRAIN
  level: 0
  stage: ""
}
layer {
  name: "cifar"
  type: "Data"
  top: "data"
  top: "label"
  include {
    phase: TRAIN
  }
  transform_param {
    mean_file: "examples/cifar10/mean.binaryproto"
  }
  data_param {
    source: "examples/cifar10/cifar10_train_lmdb"
    batch_size: 100
    backend: LMDB
  }
}
layer {
  name: "conv1"
  type: "Convolution"
  bottom: "data"
  top: "conv1"
  param {
    lr_mult: 1
  }
  param {
    lr_mult: 2
  }
  convolution_param {
    num_output: 32
    pad: 2
    kernel_size: 5
    stride: 1
    weight_filler {
      type: "gaussian"
      std: 0.0001
    }
    bias_filler {
      type: "constant"
    }
  }
}
layer {
  name: "pool1"
  type: "Pooling"
  bottom: "conv1"
  top: "pool1"
  pooling_param {
    pool: MAX
    kernel_size: 3
    stride: 2
  }
}
layer {
  name: "relu1"
  type: "ReLU"
  bottom: "pool1"
  top: "pool1"
}
layer {
  name: "conv2"
  type: "Convolution"
  bottom: "pool1"
  top: "conv2"
  param {
    lr_mult: 1
  }
  param {
    lr_mult: 2
  }
  convolution_param {
    num_output: 32
    pad: 2
    kernel_size: 5
    stride: 1
    weight_filler {
      type: "gaussian"
      std: 0.01
    }
    bias_filler {
      type: "constant"
    }
  }
}
layer {
  name: "relu2"
  type: "ReLU"
  bottom: "conv2"
  top: "conv2"
}
layer {
  name: "pool2"
  type: "Pooling"
  bottom: "conv2"
  top: "pool2"
  pooling_param {
    pool: AVE
    kernel_size: 3
    stride: 2
  }
}
layer {
  name: "conv3"
  type: "Convolution"
  bottom: "pool2"
  top: "conv3"
  param {
    lr_mult: 1
  }
  param {
    lr_mult: 2
  }
  convolution_param {
    num_output: 64
    pad: 2
    kernel_size: 5
    stride: 1
    weight_filler {
      type: "gaussian"
      std: 0.01
    }
    bias_filler {
      type: "constant"
    }
  }
}
layer {
  name: "relu3"
  type: "ReLU"
  bottom: "conv3"
  top: "conv3"
}
layer {
  name: "pool3"
  type: "Pooling"
  bottom: "conv3"
  top: "pool3"
  pooling_param {
    pool: AVE
    kernel_size: 3
    stride: 2
  }
}
layer {
  name: "ip1"
  type: "InnerProduct"
  bottom: "pool3"
  top: "ip1"
  param {
    lr_mult: 1
  }
  param {
    lr_mult: 2
  }
  inner_product_param {
    num_output: 64
    weight_filler {
      type: "gaussian"
      std: 0.1
    }
    bias_filler {
      type: "constant"
    }
  }
}
layer {
  name: "ip2"
  type: "InnerProduct"
  bottom: "ip1"
  top: "ip2"
  param {
    lr_mult: 1
  }
  param {
    lr_mult: 2
  }
  inner_product_param {
    num_output: 10
    weight_filler {
      type: "gaussian"
      std: 0.1
    }
    bias_filler {
      type: "constant"
    }
  }
}
layer {
  name: "loss"
  type: "SoftmaxWithLoss"
  bottom: "ip2"
  bottom: "label"
  top: "loss"
}
I0820 20:00:52.421542  7922 layer_factory.hpp:77] Creating layer cifar
I0820 20:00:52.422159  7922 net.cpp:100] Creating Layer cifar
I0820 20:00:52.422184  7922 net.cpp:408] cifar -> data
I0820 20:00:52.422227  7922 net.cpp:408] cifar -> label
I0820 20:00:52.422256  7922 data_transformer.cpp:25] Loading mean file from: examples/cifar10/mean.binaryproto
I0820 20:00:52.422859  7927 db_lmdb.cpp:35] Opened lmdb examples/cifar10/cifar10_train_lmdb
I0820 20:00:52.431634  7922 data_layer.cpp:41] output data size: 100,3,32,32
I0820 20:00:52.435231  7922 net.cpp:150] Setting up cifar
I0820 20:00:52.435308  7922 net.cpp:157] Top shape: 100 3 32 32 (307200)
I0820 20:00:52.435315  7922 net.cpp:157] Top shape: 100 (100)
I0820 20:00:52.435320  7922 net.cpp:165] Memory required for data: 1229200
I0820 20:00:52.435333  7922 layer_factory.hpp:77] Creating layer conv1
I0820 20:00:52.435380  7922 net.cpp:100] Creating Layer conv1
I0820 20:00:52.435392  7922 net.cpp:434] conv1 <- data
I0820 20:00:52.435416  7922 net.cpp:408] conv1 -> conv1
I0820 20:00:52.603054  7922 net.cpp:150] Setting up conv1
I0820 20:00:52.603108  7922 net.cpp:157] Top shape: 100 32 32 32 (3276800)
I0820 20:00:52.603114  7922 net.cpp:165] Memory required for data: 14336400
I0820 20:00:52.603164  7922 layer_factory.hpp:77] Creating layer pool1
I0820 20:00:52.603191  7922 net.cpp:100] Creating Layer pool1
I0820 20:00:52.603198  7922 net.cpp:434] pool1 <- conv1
I0820 20:00:52.603209  7922 net.cpp:408] pool1 -> pool1
I0820 20:00:52.603289  7922 net.cpp:150] Setting up pool1
I0820 20:00:52.603307  7922 net.cpp:157] Top shape: 100 32 16 16 (819200)
I0820 20:00:52.603312  7922 net.cpp:165] Memory required for data: 17613200
I0820 20:00:52.603318  7922 layer_factory.hpp:77] Creating layer relu1
I0820 20:00:52.603329  7922 net.cpp:100] Creating Layer relu1
I0820 20:00:52.603340  7922 net.cpp:434] relu1 <- pool1
I0820 20:00:52.603353  7922 net.cpp:395] relu1 -> pool1 (in-place)
I0820 20:00:52.603549  7922 net.cpp:150] Setting up relu1
I0820 20:00:52.603567  7922 net.cpp:157] Top shape: 100 32 16 16 (819200)
I0820 20:00:52.603574  7922 net.cpp:165] Memory required for data: 20890000
I0820 20:00:52.603581  7922 layer_factory.hpp:77] Creating layer conv2
I0820 20:00:52.603601  7922 net.cpp:100] Creating Layer conv2
I0820 20:00:52.603610  7922 net.cpp:434] conv2 <- pool1
I0820 20:00:52.603622  7922 net.cpp:408] conv2 -> conv2
I0820 20:00:52.606273  7922 net.cpp:150] Setting up conv2
I0820 20:00:52.606328  7922 net.cpp:157] Top shape: 100 32 16 16 (819200)
I0820 20:00:52.606336  7922 net.cpp:165] Memory required for data: 24166800
I0820 20:00:52.606359  7922 layer_factory.hpp:77] Creating layer relu2
I0820 20:00:52.606374  7922 net.cpp:100] Creating Layer relu2
I0820 20:00:52.606385  7922 net.cpp:434] relu2 <- conv2
I0820 20:00:52.606396  7922 net.cpp:395] relu2 -> conv2 (in-place)
I0820 20:00:52.606587  7922 net.cpp:150] Setting up relu2
I0820 20:00:52.606608  7922 net.cpp:157] Top shape: 100 32 16 16 (819200)
I0820 20:00:52.606617  7922 net.cpp:165] Memory required for data: 27443600
I0820 20:00:52.606624  7922 layer_factory.hpp:77] Creating layer pool2
I0820 20:00:52.606639  7922 net.cpp:100] Creating Layer pool2
I0820 20:00:52.606648  7922 net.cpp:434] pool2 <- conv2
I0820 20:00:52.606660  7922 net.cpp:408] pool2 -> pool2
I0820 20:00:52.607008  7922 net.cpp:150] Setting up pool2
I0820 20:00:52.607030  7922 net.cpp:157] Top shape: 100 32 8 8 (204800)
I0820 20:00:52.607043  7922 net.cpp:165] Memory required for data: 28262800
I0820 20:00:52.607050  7922 layer_factory.hpp:77] Creating layer conv3
I0820 20:00:52.607069  7922 net.cpp:100] Creating Layer conv3
I0820 20:00:52.607079  7922 net.cpp:434] conv3 <- pool2
I0820 20:00:52.607095  7922 net.cpp:408] conv3 -> conv3
I0820 20:00:52.609609  7922 net.cpp:150] Setting up conv3
I0820 20:00:52.609639  7922 net.cpp:157] Top shape: 100 64 8 8 (409600)
I0820 20:00:52.609645  7922 net.cpp:165] Memory required for data: 29901200
I0820 20:00:52.609658  7922 layer_factory.hpp:77] Creating layer relu3
I0820 20:00:52.609670  7922 net.cpp:100] Creating Layer relu3
I0820 20:00:52.609678  7922 net.cpp:434] relu3 <- conv3
I0820 20:00:52.609689  7922 net.cpp:395] relu3 -> conv3 (in-place)
I0820 20:00:52.609876  7922 net.cpp:150] Setting up relu3
I0820 20:00:52.609896  7922 net.cpp:157] Top shape: 100 64 8 8 (409600)
I0820 20:00:52.609905  7922 net.cpp:165] Memory required for data: 31539600
I0820 20:00:52.609915  7922 layer_factory.hpp:77] Creating layer pool3
I0820 20:00:52.609938  7922 net.cpp:100] Creating Layer pool3
I0820 20:00:52.609963  7922 net.cpp:434] pool3 <- conv3
I0820 20:00:52.609977  7922 net.cpp:408] pool3 -> pool3
I0820 20:00:52.610334  7922 net.cpp:150] Setting up pool3
I0820 20:00:52.610357  7922 net.cpp:157] Top shape: 100 64 4 4 (102400)
I0820 20:00:52.610368  7922 net.cpp:165] Memory required for data: 31949200
I0820 20:00:52.610379  7922 layer_factory.hpp:77] Creating layer ip1
I0820 20:00:52.610401  7922 net.cpp:100] Creating Layer ip1
I0820 20:00:52.610415  7922 net.cpp:434] ip1 <- pool3
I0820 20:00:52.610431  7922 net.cpp:408] ip1 -> ip1
I0820 20:00:52.612578  7922 net.cpp:150] Setting up ip1
I0820 20:00:52.612606  7922 net.cpp:157] Top shape: 100 64 (6400)
I0820 20:00:52.612610  7922 net.cpp:165] Memory required for data: 31974800
I0820 20:00:52.612619  7922 layer_factory.hpp:77] Creating layer ip2
I0820 20:00:52.612629  7922 net.cpp:100] Creating Layer ip2
I0820 20:00:52.612637  7922 net.cpp:434] ip2 <- ip1
I0820 20:00:52.612650  7922 net.cpp:408] ip2 -> ip2
I0820 20:00:52.612802  7922 net.cpp:150] Setting up ip2
I0820 20:00:52.612819  7922 net.cpp:157] Top shape: 100 10 (1000)
I0820 20:00:52.612829  7922 net.cpp:165] Memory required for data: 31978800
I0820 20:00:52.612848  7922 layer_factory.hpp:77] Creating layer loss
I0820 20:00:52.612864  7922 net.cpp:100] Creating Layer loss
I0820 20:00:52.612872  7922 net.cpp:434] loss <- ip2
I0820 20:00:52.612884  7922 net.cpp:434] loss <- label
I0820 20:00:52.612897  7922 net.cpp:408] loss -> loss
I0820 20:00:52.612926  7922 layer_factory.hpp:77] Creating layer loss
…
I0820 20:00:52.614117  7922 solver.cpp:181] Creating test net (#0) specified by net file: examples/cifar10/cifar10_quick_train_test.prototxt
I0820 20:00:52.614176  7922 net.cpp:322] The NetState phase (1) differed from the phase (0) specified by a rule in layer cifar
I0820 20:00:52.614336  7922 net.cpp:58] Initializing net from parameters: 
name: "CIFAR10_quick"
state {
  phase: TEST
}
layer {
  name: "cifar"
  type: "Data"
  top: "data"
  top: "label"
  include {
    phase: TEST
  }
  transform_param {
    mean_file: "examples/cifar10/mean.binaryproto"
  }
  data_param {
    source: "examples/cifar10/cifar10_test_lmdb"
    batch_size: 100
    backend: LMDB
  }
}
layer {
  name: "conv1"
  type: "Convolution"
  bottom: "data"
  top: "conv1"
  param {
    lr_mult: 1
  }
  param {
    lr_mult: 2
  }
  convolution_param {
    num_output: 32
    pad: 2
    kernel_size: 5
    stride: 1
    weight_filler {
      type: "gaussian"
      std: 0.0001
    }
    bias_filler {
      type: "constant"
    }
  }
}
layer {
  name: "pool1"
  type: "Pooling"
  bottom: "conv1"
  top: "pool1"
  pooling_param {
    pool: MAX
    kernel_size: 3
    stride: 2
  }
}
layer {
  name: "relu1"
  type: "ReLU"
  bottom: "pool1"
  top: "pool1"
}
layer {
  name: "conv2"
  type: "Convolution"
  bottom: "pool1"
  top: "conv2"
  param {
    lr_mult: 1
  }
  param {
    lr_mult: 2
  }
  convolution_param {
    num_output: 32
    pad: 2
    kernel_size: 5
    stride: 1
    weight_filler {
      type: "gaussian"
      std: 0.01
    }
    bias_filler {
      type: "constant"
    }
  }
}
layer {
  name: "relu2"
  type: "ReLU"
  bottom: "conv2"
  top: "conv2"
}
layer {
  name: "pool2"
  type: "Pooling"
  bottom: "conv2"
  top: "pool2"
  pooling_param {
    pool: AVE
    kernel_size: 3
    stride: 2
  }
}
layer {
  name: "conv3"
  type: "Convolution"
  bottom: "pool2"
  top: "conv3"
  param {
    lr_mult: 1
  }
  param {
    lr_mult: 2
  }
  convolution_param {
    num_output: 64
    pad: 2
    kernel_size: 5
    stride: 1
    weight_filler {
      type: "gaussian"
      std: 0.01
    }
    bias_filler {
      type: "constant"
    }
  }
}
layer {
  name: "relu3"
  type: "ReLU"
  bottom: "conv3"
  top: "conv3"
}
layer {
  name: "pool3"
  type: "Pooling"
  bottom: "conv3"
  top: "pool3"
  pooling_param {
    pool: AVE
    kernel_size: 3
    stride: 2
  }
}
layer {
  name: "ip1"
  type: "InnerProduct"
  bottom: "pool3"
  top: "ip1"
  param {
    lr_mult: 1
  }
  param {
    lr_mult: 2
  }
  inner_product_param {
    num_output: 64
    weight_filler {
      type: "gaussian"
      std: 0.1
    }
    bias_filler {
      type: "constant"
    }
  }
}
layer {
  name: "ip2"
  type: "InnerProduct"
  bottom: "ip1"
  top: "ip2"
  param {
    lr_mult: 1
  }
  param {
    lr_mult: 2
  }
  inner_product_param {
    num_output: 10
    weight_filler {
      type: "gaussian"
      std: 0.1
    }
    bias_filler {
      type: "constant"
    }
  }
}
layer {
  name: "accuracy"
  type: "Accuracy"
  bottom: "ip2"
  bottom: "label"
  top: "accuracy"
  include {
    phase: TEST
  }
}
layer {
  name: "loss"
  type: "SoftmaxWithLoss"
  bottom: "ip2"
  bottom: "label"
  top: "loss"
}
I0820 20:00:52.614481  7922 layer_factory.hpp:77] Creating layer cifar
I0820 20:00:52.614655  7922 net.cpp:100] Creating Layer cifar
I0820 20:00:52.614673  7922 net.cpp:408] cifar -> data
I0820 20:00:52.614697  7922 net.cpp:408] cifar -> label
I0820 20:00:52.614717  7922 data_transformer.cpp:25] Loading mean file from: examples/cifar10/mean.binaryproto
I0820 20:00:52.615926  7929 db_lmdb.cpp:35] Opened lmdb examples/cifar10/cifar10_test_lmdb
I0820 20:00:52.616153  7922 data_layer.cpp:41] output data size: 100,3,32,32
I0820 20:00:52.620481  7922 net.cpp:150] Setting up cifar
I0820 20:00:52.620537  7922 net.cpp:157] Top shape: 100 3 32 32 (307200)
I0820 20:00:52.620551  7922 net.cpp:157] Top shape: 100 (100)
I0820 20:00:52.620559  7922 net.cpp:165] Memory required for data: 1229200
I0820 20:00:52.620570  7922 layer_factory.hpp:77] Creating layer label_cifar_1_split
I0820 20:00:52.620590  7922 net.cpp:100] Creating Layer label_cifar_1_split
I0820 20:00:52.620604  7922 net.cpp:434] label_cifar_1_split <- label
I0820 20:00:52.620618  7922 net.cpp:408] label_cifar_1_split -> label_cifar_1_split_0
I0820 20:00:52.620637  7922 net.cpp:408] label_cifar_1_split -> label_cifar_1_split_1
I0820 20:00:52.620916  7922 net.cpp:150] Setting up label_cifar_1_split
I0820 20:00:52.620939  7922 net.cpp:157] Top shape: 100 (100)
I0820 20:00:52.620949  7922 net.cpp:157] Top shape: 100 (100)
I0820 20:00:52.620955  7922 net.cpp:165] Memory required for data: 1230000
I0820 20:00:52.620962  7922 layer_factory.hpp:77] Creating layer conv1
I0820 20:00:52.620983  7922 net.cpp:100] Creating Layer conv1
I0820 20:00:52.620995  7922 net.cpp:434] conv1 <- data
I0820 20:00:52.621007  7922 net.cpp:408] conv1 -> conv1
I0820 20:00:52.622750  7922 net.cpp:150] Setting up conv1
I0820 20:00:52.622799  7922 net.cpp:157] Top shape: 100 32 32 32 (3276800)
I0820 20:00:52.622814  7922 net.cpp:165] Memory required for data: 14337200
I0820 20:00:52.622845  7922 layer_factory.hpp:77] Creating layer pool1
I0820 20:00:52.622881  7922 net.cpp:100] Creating Layer pool1
I0820 20:00:52.622913  7922 net.cpp:434] pool1 <- conv1
I0820 20:00:52.622933  7922 net.cpp:408] pool1 -> pool1
I0820 20:00:52.623016  7922 net.cpp:150] Setting up pool1
I0820 20:00:52.623034  7922 net.cpp:157] Top shape: 100 32 16 16 (819200)
I0820 20:00:52.623044  7922 net.cpp:165] Memory required for data: 17614000
I0820 20:00:52.623055  7922 layer_factory.hpp:77] Creating layer relu1
I0820 20:00:52.623072  7922 net.cpp:100] Creating Layer relu1
I0820 20:00:52.623085  7922 net.cpp:434] relu1 <- pool1
I0820 20:00:52.623098  7922 net.cpp:395] relu1 -> pool1 (in-place)
I0820 20:00:52.623528  7922 net.cpp:150] Setting up relu1
I0820 20:00:52.623556  7922 net.cpp:157] Top shape: 100 32 16 16 (819200)
I0820 20:00:52.623565  7922 net.cpp:165] Memory required for data: 20890800
I0820 20:00:52.623575  7922 layer_factory.hpp:77] Creating layer conv2
I0820 20:00:52.623599  7922 net.cpp:100] Creating Layer conv2
I0820 20:00:52.623608  7922 net.cpp:434] conv2 <- pool1
I0820 20:00:52.623623  7922 net.cpp:408] conv2 -> conv2
I0820 20:00:52.626469  7922 net.cpp:150] Setting up conv2
I0820 20:00:52.626524  7922 net.cpp:157] Top shape: 100 32 16 16 (819200)
I0820 20:00:52.626549  7922 net.cpp:165] Memory required for data: 24167600
I0820 20:00:52.626582  7922 layer_factory.hpp:77] Creating layer relu2
I0820 20:00:52.626605  7922 net.cpp:100] Creating Layer relu2
I0820 20:00:52.626622  7922 net.cpp:434] relu2 <- conv2
I0820 20:00:52.626643  7922 net.cpp:395] relu2 -> conv2 (in-place)
I0820 20:00:52.626945  7922 net.cpp:150] Setting up relu2
I0820 20:00:52.626968  7922 net.cpp:157] Top shape: 100 32 16 16 (819200)
I0820 20:00:52.626978  7922 net.cpp:165] Memory required for data: 27444400
I0820 20:00:52.626989  7922 layer_factory.hpp:77] Creating layer pool2
I0820 20:00:52.627015  7922 net.cpp:100] Creating Layer pool2
I0820 20:00:52.627024  7922 net.cpp:434] pool2 <- conv2
I0820 20:00:52.627040  7922 net.cpp:408] pool2 -> pool2
I0820 20:00:52.627714  7922 net.cpp:150] Setting up pool2
I0820 20:00:52.627745  7922 net.cpp:157] Top shape: 100 32 8 8 (204800)
I0820 20:00:52.627758  7922 net.cpp:165] Memory required for data: 28263600
I0820 20:00:52.627766  7922 layer_factory.hpp:77] Creating layer conv3
I0820 20:00:52.627799  7922 net.cpp:100] Creating Layer conv3
I0820 20:00:52.627813  7922 net.cpp:434] conv3 <- pool2
I0820 20:00:52.627833  7922 net.cpp:408] conv3 -> conv3
I0820 20:00:52.630854  7922 net.cpp:150] Setting up conv3
I0820 20:00:52.630900  7922 net.cpp:157] Top shape: 100 64 8 8 (409600)
I0820 20:00:52.630909  7922 net.cpp:165] Memory required for data: 29902000
I0820 20:00:52.630928  7922 layer_factory.hpp:77] Creating layer relu3
I0820 20:00:52.630944  7922 net.cpp:100] Creating Layer relu3
I0820 20:00:52.630951  7922 net.cpp:434] relu3 <- conv3
I0820 20:00:52.630960  7922 net.cpp:395] relu3 -> conv3 (in-place)
I0820 20:00:52.631283  7922 net.cpp:150] Setting up relu3
I0820 20:00:52.631301  7922 net.cpp:157] Top shape: 100 64 8 8 (409600)
I0820 20:00:52.631306  7922 net.cpp:165] Memory required for data: 31540400
I0820 20:00:52.631311  7922 layer_factory.hpp:77] Creating layer pool3
I0820 20:00:52.631322  7922 net.cpp:100] Creating Layer pool3
I0820 20:00:52.631327  7922 net.cpp:434] pool3 <- conv3
I0820 20:00:52.631335  7922 net.cpp:408] pool3 -> pool3
I0820 20:00:52.631642  7922 net.cpp:150] Setting up pool3
I0820 20:00:52.631659  7922 net.cpp:157] Top shape: 100 64 4 4 (102400)
I0820 20:00:52.631664  7922 net.cpp:165] Memory required for data: 31950000
I0820 20:00:52.631667  7922 layer_factory.hpp:77] Creating layer ip1
I0820 20:00:52.631677  7922 net.cpp:100] Creating Layer ip1
I0820 20:00:52.631685  7922 net.cpp:434] ip1 <- pool3
I0820 20:00:52.631692  7922 net.cpp:408] ip1 -> ip1
I0820 20:00:52.634227  7922 net.cpp:150] Setting up ip1
I0820 20:00:52.634266  7922 net.cpp:157] Top shape: 100 64 (6400)
I0820 20:00:52.634277  7922 net.cpp:165] Memory required for data: 31975600
I0820 20:00:52.634296  7922 layer_factory.hpp:77] Creating layer ip2
I0820 20:00:52.634321  7922 net.cpp:100] Creating Layer ip2
I0820 20:00:52.634344  7922 net.cpp:434] ip2 <- ip1
I0820 20:00:52.634377  7922 net.cpp:408] ip2 -> ip2
I0820 20:00:52.634585  7922 net.cpp:150] Setting up ip2
I0820 20:00:52.634608  7922 net.cpp:157] Top shape: 100 10 (1000)
I0820 20:00:52.634618  7922 net.cpp:165] Memory required for data: 31979600
I0820 20:00:52.634642  7922 layer_factory.hpp:77] Creating layer ip2_ip2_0_split
I0820 20:00:52.634657  7922 net.cpp:100] Creating Layer ip2_ip2_0_split
I0820 20:00:52.634667  7922 net.cpp:434] ip2_ip2_0_split <- ip2
I0820 20:00:52.634677  7922 net.cpp:408] ip2_ip2_0_split -> ip2_ip2_0_split_0
I0820 20:00:52.634691  7922 net.cpp:408] ip2_ip2_0_split -> ip2_ip2_0_split_1
I0820 20:00:52.634752  7922 net.cpp:150] Setting up ip2_ip2_0_split
I0820 20:00:52.634769  7922 net.cpp:157] Top shape: 100 10 (1000)
I0820 20:00:52.634779  7922 net.cpp:157] Top shape: 100 10 (1000)
I0820 20:00:52.634786  7922 net.cpp:165] Memory required for data: 31987600
I0820 20:00:52.634793  7922 layer_factory.hpp:77] Creating layer accuracy
I0820 20:00:52.634807  7922 net.cpp:100] Creating Layer accuracy
I0820 20:00:52.634816  7922 net.cpp:434] accuracy <- ip2_ip2_0_split_0
I0820 20:00:52.634829  7922 net.cpp:434] accuracy <- label_cifar_1_split_0
I0820 20:00:52.634838  7922 net.cpp:408] accuracy -> accuracy
…
