…
I0423 20:53:16.571388 68665 net.cpp:294] The NetState phase (0) differed from the phase (1) specified by a rule in layer mnist
I0423 20:53:16.571411 68665 net.cpp:294] The NetState phase (0) differed from the phase (1) specified by a rule in layer accuracy
I0423 20:53:16.571498 68665 net.cpp:51] Initializing net from parameters: 
name: "LeNet"
state {
  phase: TRAIN
  level: 0
  stage: ""
}
layer {
  name: "mnist"
  type: "Data"
  top: "data"
  top: "label"
  include {
    phase: TRAIN
  }
  transform_param {
    scale: 0.00390625
  }
  data_param {
    source: "../mnist_train_lmdb"
    batch_size: 64
    backend: LMDB
  }
}
layer {
  name: "conv1"
  type: "Convolution"
  bottom: "data"
  top: "conv1"
  param {
    lr_mult: 1
  }
  param {
    lr_mult: 2
  }
  convolution_param {
    num_output: 20
    kernel_size: 5
    stride: 1
    weight_filler {
      type: "xavier"
    }
    bias_filler {
      type: "constant"
    }
  }
}
layer {
  name: "pool1"
  type: "Pooling"
  bottom: "conv1"
  top: "pool1"
  pooling_param {
    pool: MAX
    kernel_size: 2
    stride: 2
  }
}
layer {
  name: "conv2"
  type: "Convolution"
  bottom: "pool1"
  top: "conv2"
  param {
    lr_mult: 1
  }
  param {
    lr_mult: 2
  }
  convolution_param {
    num_output: 50
    kernel_size: 5
    stride: 1
    weight_filler {
      type: "xavier"
    }
    bias_filler {
      type: "constant"
    }
  }
}
layer {
  name: "pool2"
  type: "Pooling"
  bottom: "conv2"
  top: "pool2"
  pooling_param {
    pool: MAX
    kernel_size: 2
    stride: 2
  }
}
layer {
  name: "ip1"
  type: "InnerProduct"
  bottom: "pool2"
  top: "ip1"
  param {
    lr_mult: 1
  }
  param {
    lr_mult: 2
  }
  inner_product_param {
    num_output: 500
    weight_filler {
      type: "xavier"
    }
    bias_filler {
      type: "constant"
    }
  }
}
layer {
  name: "relu1"
  type: "ReLU"
  bottom: "ip1"
  top: "ip1"
}
layer {
  name: "ip2"
  type: "InnerProduct"
  bottom: "ip1"
  top: "ip2"
  param {
    lr_mult: 1
  }
  param {
    lr_mult: 2
  }
  inner_product_param {
    num_output: 10
    weight_filler {
      type: "xavier"
    }
    bias_filler {
      type: "constant"
    }
  }
}
layer {
  name: "loss"
  type: "SoftmaxWithLoss"
  bottom: "ip2"
  bottom: "label"
  top: "loss"
}
I0423 20:53:16.571571 68665 layer_factory.hpp:77] Creating layer mnist
I0423 20:53:16.571693 68665 db_lmdb.cpp:35] Opened lmdb ../mnist_train_lmdb
I0423 20:53:16.571724 68665 net.cpp:84] Creating Layer mnist
I0423 20:53:16.571738 68665 net.cpp:380] mnist -> data
I0423 20:53:16.571774 68665 net.cpp:380] mnist -> label
I0423 20:53:16.572439 68665 data_layer.cpp:45] output data size: 64,1,28,28
I0423 20:53:16.574048 68665 net.cpp:122] Setting up mnist
I0423 20:53:16.574069 68665 net.cpp:129] Top shape: 64 1 28 28 (50176)
I0423 20:53:16.574079 68665 net.cpp:129] Top shape: 64 (64)
I0423 20:53:16.574082 68665 net.cpp:137] Memory required for data: 200960
I0423 20:53:16.574090 68665 layer_factory.hpp:77] Creating layer conv1
I0423 20:53:16.574106 68665 net.cpp:84] Creating Layer conv1
I0423 20:53:16.574112 68665 net.cpp:406] conv1 <- data
I0423 20:53:16.574132 68665 net.cpp:380] conv1 -> conv1
I0423 20:53:16.575181 68665 net.cpp:122] Setting up conv1
I0423 20:53:16.575199 68665 net.cpp:129] Top shape: 64 20 24 24 (737280)
I0423 20:53:16.575204 68665 net.cpp:137] Memory required for data: 3150080
I0423 20:53:16.575222 68665 layer_factory.hpp:77] Creating layer pool1
I0423 20:53:16.575233 68665 net.cpp:84] Creating Layer pool1
I0423 20:53:16.575242 68665 net.cpp:406] pool1 <- conv1
I0423 20:53:16.575273 68665 net.cpp:380] pool1 -> pool1
I0423 20:53:16.575330 68665 net.cpp:122] Setting up pool1
I0423 20:53:16.575340 68665 net.cpp:129] Top shape: 64 20 12 12 (184320)
I0423 20:53:16.575343 68665 net.cpp:137] Memory required for data: 3887360
I0423 20:53:16.575347 68665 layer_factory.hpp:77] Creating layer conv2
I0423 20:53:16.575358 68665 net.cpp:84] Creating Layer conv2
I0423 20:53:16.575369 68665 net.cpp:406] conv2 <- pool1
I0423 20:53:16.575376 68665 net.cpp:380] conv2 -> conv2
I0423 20:53:16.575783 68665 net.cpp:122] Setting up conv2
I0423 20:53:16.575795 68665 net.cpp:129] Top shape: 64 50 8 8 (204800)
I0423 20:53:16.575799 68665 net.cpp:137] Memory required for data: 4706560
I0423 20:53:16.575809 68665 layer_factory.hpp:77] Creating layer pool2
I0423 20:53:16.575817 68665 net.cpp:84] Creating Layer pool2
I0423 20:53:16.575821 68665 net.cpp:406] pool2 <- conv2
I0423 20:53:16.575829 68665 net.cpp:380] pool2 -> pool2
I0423 20:53:16.575862 68665 net.cpp:122] Setting up pool2
I0423 20:53:16.575872 68665 net.cpp:129] Top shape: 64 50 4 4 (51200)
I0423 20:53:16.575875 68665 net.cpp:137] Memory required for data: 4911360
I0423 20:53:16.575880 68665 layer_factory.hpp:77] Creating layer ip1
I0423 20:53:16.575886 68665 net.cpp:84] Creating Layer ip1
I0423 20:53:16.575892 68665 net.cpp:406] ip1 <- pool2
I0423 20:53:16.575898 68665 net.cpp:380] ip1 -> ip1
I0423 20:53:16.579897 68665 net.cpp:122] Setting up ip1
I0423 20:53:16.579918 68665 net.cpp:129] Top shape: 64 500 (32000)
I0423 20:53:16.579924 68665 net.cpp:137] Memory required for data: 5039360
I0423 20:53:16.579934 68665 layer_factory.hpp:77] Creating layer relu1
I0423 20:53:16.579942 68665 net.cpp:84] Creating Layer relu1
I0423 20:53:16.579951 68665 net.cpp:406] relu1 <- ip1
I0423 20:53:16.579970 68665 net.cpp:367] relu1 -> ip1 (in-place)
I0423 20:53:16.579993 68665 net.cpp:122] Setting up relu1
I0423 20:53:16.580009 68665 net.cpp:129] Top shape: 64 500 (32000)
I0423 20:53:16.580014 68665 net.cpp:137] Memory required for data: 5167360
I0423 20:53:16.580018 68665 layer_factory.hpp:77] Creating layer ip2
I0423 20:53:16.580025 68665 net.cpp:84] Creating Layer ip2
I0423 20:53:16.580030 68665 net.cpp:406] ip2 <- ip1
I0423 20:53:16.580037 68665 net.cpp:380] ip2 -> ip2
I0423 20:53:16.580729 68665 net.cpp:122] Setting up ip2
I0423 20:53:16.580747 68665 net.cpp:129] Top shape: 64 10 (640)
I0423 20:53:16.580752 68665 net.cpp:137] Memory required for data: 5169920
I0423 20:53:16.580760 68665 layer_factory.hpp:77] Creating layer loss
I0423 20:53:16.580773 68665 net.cpp:84] Creating Layer loss
I0423 20:53:16.580777 68665 net.cpp:406] loss <- ip2
I0423 20:53:16.580782 68665 net.cpp:406] loss <- label
I0423 20:53:16.580790 68665 net.cpp:380] loss -> loss
I0423 20:53:16.580802 68665 layer_factory.hpp:77] Creating layer loss
…
I0423 20:53:16.581274 68665 solver.cpp:172] Creating test net (#0) specified by net file: lenet_train_test.prototxt
I0423 20:53:16.581302 68665 net.cpp:294] The NetState phase (1) differed from the phase (0) specified by a rule in layer mnist
I0423 20:53:16.581475 68665 net.cpp:51] Initializing net from parameters: 
name: "LeNet"
state {
  phase: TEST
}
layer {
  name: "mnist"
  type: "Data"
  top: "data"
  top: "label"
  include {
    phase: TEST
  }
  transform_param {
    scale: 0.00390625
  }
  data_param {
    source: "../mnist_test_lmdb"
    batch_size: 100
    backend: LMDB
  }
}
layer {
  name: "conv1"
  type: "Convolution"
  bottom: "data"
  top: "conv1"
  param {
    lr_mult: 1
  }
  param {
    lr_mult: 2
  }
  convolution_param {
    num_output: 20
    kernel_size: 5
    stride: 1
    weight_filler {
      type: "xavier"
    }
    bias_filler {
      type: "constant"
    }
  }
}
layer {
  name: "pool1"
  type: "Pooling"
  bottom: "conv1"
  top: "pool1"
  pooling_param {
    pool: MAX
    kernel_size: 2
    stride: 2
  }
}
layer {
  name: "conv2"
  type: "Convolution"
  bottom: "pool1"
  top: "conv2"
  param {
    lr_mult: 1
  }
  param {
    lr_mult: 2
  }
  convolution_param {
    num_output: 50
    kernel_size: 5
    stride: 1
    weight_filler {
      type: "xavier"
    }
    bias_filler {
      type: "constant"
    }
  }
}
layer {
  name: "pool2"
  type: "Pooling"
  bottom: "conv2"
  top: "pool2"
  pooling_param {
    pool: MAX
    kernel_size: 2
    stride: 2
  }
}
layer {
  name: "ip1"
  type: "InnerProduct"
  bottom: "pool2"
  top: "ip1"
  param {
    lr_mult: 1
  }
  param {
    lr_mult: 2
  }
  inner_product_param {
    num_output: 500
    weight_filler {
      type: "xavier"
    }
    bias_filler {
      type: "constant"
    }
  }
}
layer {
  name: "relu1"
  type: "ReLU"
  bottom: "ip1"
  top: "ip1"
}
layer {
  name: "ip2"
  type: "InnerProduct"
  bottom: "ip1"
  top: "ip2"
  param {
    lr_mult: 1
  }
  param {
    lr_mult: 2
  }
  inner_product_param {
    num_output: 10
    weight_filler {
      type: "xavier"
    }
    bias_filler {
      type: "constant"
    }
  }
}
layer {
  name: "accuracy"
  type: "Accuracy"
  bottom: "ip2"
  bottom: "label"
  top: "accuracy"
  include {
    phase: TEST
  }
}
layer {
  name: "loss"
  type: "SoftmaxWithLoss"
  bottom: "ip2"
  bottom: "label"
  top: "loss"
}
I0423 20:53:16.581671 68665 layer_factory.hpp:77] Creating layer mnist
I0423 20:53:16.581784 68665 db_lmdb.cpp:35] Opened lmdb ../mnist_test_lmdb
I0423 20:53:16.581804 68665 net.cpp:84] Creating Layer mnist
I0423 20:53:16.581815 68665 net.cpp:380] mnist -> data
I0423 20:53:16.581825 68665 net.cpp:380] mnist -> label
I0423 20:53:16.581919 68665 data_layer.cpp:45] output data size: 100,1,28,28
I0423 20:53:16.584025 68665 net.cpp:122] Setting up mnist
I0423 20:53:16.584058 68665 net.cpp:129] Top shape: 100 1 28 28 (78400)
I0423 20:53:16.584065 68665 net.cpp:129] Top shape: 100 (100)
I0423 20:53:16.584070 68665 net.cpp:137] Memory required for data: 314000
I0423 20:53:16.584074 68665 layer_factory.hpp:77] Creating layer label_mnist_1_split
I0423 20:53:16.584082 68665 net.cpp:84] Creating Layer label_mnist_1_split
I0423 20:53:16.584086 68665 net.cpp:406] label_mnist_1_split <- label
I0423 20:53:16.584092 68665 net.cpp:380] label_mnist_1_split -> label_mnist_1_split_0
I0423 20:53:16.584100 68665 net.cpp:380] label_mnist_1_split -> label_mnist_1_split_1
I0423 20:53:16.584183 68665 net.cpp:122] Setting up label_mnist_1_split
I0423 20:53:16.584194 68665 net.cpp:129] Top shape: 100 (100)
I0423 20:53:16.584199 68665 net.cpp:129] Top shape: 100 (100)
I0423 20:53:16.584245 68665 net.cpp:137] Memory required for data: 314800
I0423 20:53:16.584254 68665 layer_factory.hpp:77] Creating layer conv1
I0423 20:53:16.584270 68665 net.cpp:84] Creating Layer conv1
I0423 20:53:16.584278 68665 net.cpp:406] conv1 <- data
I0423 20:53:16.584292 68665 net.cpp:380] conv1 -> conv1
I0423 20:53:16.584609 68665 net.cpp:122] Setting up conv1
I0423 20:53:16.584630 68665 net.cpp:129] Top shape: 100 20 24 24 (1152000)
I0423 20:53:16.584635 68665 net.cpp:137] Memory required for data: 4922800
I0423 20:53:16.584645 68665 layer_factory.hpp:77] Creating layer pool1
I0423 20:53:16.584652 68665 net.cpp:84] Creating Layer pool1
I0423 20:53:16.584669 68665 net.cpp:406] pool1 <- conv1
I0423 20:53:16.584681 68665 net.cpp:380] pool1 -> pool1
I0423 20:53:16.584729 68665 net.cpp:122] Setting up pool1
I0423 20:53:16.584743 68665 net.cpp:129] Top shape: 100 20 12 12 (288000)
I0423 20:53:16.584746 68665 net.cpp:137] Memory required for data: 6074800
I0423 20:53:16.584750 68665 layer_factory.hpp:77] Creating layer conv2
I0423 20:53:16.584759 68665 net.cpp:84] Creating Layer conv2
I0423 20:53:16.584764 68665 net.cpp:406] conv2 <- pool1
I0423 20:53:16.584772 68665 net.cpp:380] conv2 -> conv2
I0423 20:53:16.585196 68665 net.cpp:122] Setting up conv2
I0423 20:53:16.585209 68665 net.cpp:129] Top shape: 100 50 8 8 (320000)
I0423 20:53:16.585213 68665 net.cpp:137] Memory required for data: 7354800
I0423 20:53:16.585222 68665 layer_factory.hpp:77] Creating layer pool2
I0423 20:53:16.585233 68665 net.cpp:84] Creating Layer pool2
I0423 20:53:16.585242 68665 net.cpp:406] pool2 <- conv2
I0423 20:53:16.585252 68665 net.cpp:380] pool2 -> pool2
I0423 20:53:16.585295 68665 net.cpp:122] Setting up pool2
I0423 20:53:16.585305 68665 net.cpp:129] Top shape: 100 50 4 4 (80000)
I0423 20:53:16.585309 68665 net.cpp:137] Memory required for data: 7674800
I0423 20:53:16.585312 68665 layer_factory.hpp:77] Creating layer ip1
I0423 20:53:16.585319 68665 net.cpp:84] Creating Layer ip1
I0423 20:53:16.585324 68665 net.cpp:406] ip1 <- pool2
I0423 20:53:16.585330 68665 net.cpp:380] ip1 -> ip1
I0423 20:53:16.589332 68665 net.cpp:122] Setting up ip1
I0423 20:53:16.589349 68665 net.cpp:129] Top shape: 100 500 (50000)
I0423 20:53:16.589370 68665 net.cpp:137] Memory required for data: 7874800
I0423 20:53:16.589381 68665 layer_factory.hpp:77] Creating layer relu1
I0423 20:53:16.589411 68665 net.cpp:84] Creating Layer relu1
I0423 20:53:16.589416 68665 net.cpp:406] relu1 <- ip1
I0423 20:53:16.589424 68665 net.cpp:367] relu1 -> ip1 (in-place)
I0423 20:53:16.589432 68665 net.cpp:122] Setting up relu1
I0423 20:53:16.589448 68665 net.cpp:129] Top shape: 100 500 (50000)
I0423 20:53:16.589457 68665 net.cpp:137] Memory required for data: 8074800
I0423 20:53:16.589470 68665 layer_factory.hpp:77] Creating layer ip2
I0423 20:53:16.589480 68665 net.cpp:84] Creating Layer ip2
I0423 20:53:16.589484 68665 net.cpp:406] ip2 <- ip1
I0423 20:53:16.589499 68665 net.cpp:380] ip2 -> ip2
I0423 20:53:16.589645 68665 net.cpp:122] Setting up ip2
I0423 20:53:16.589658 68665 net.cpp:129] Top shape: 100 10 (1000)
I0423 20:53:16.589661 68665 net.cpp:137] Memory required for data: 8078800
I0423 20:53:16.589668 68665 layer_factory.hpp:77] Creating layer ip2_ip2_0_split
I0423 20:53:16.589675 68665 net.cpp:84] Creating Layer ip2_ip2_0_split
I0423 20:53:16.589691 68665 net.cpp:406] ip2_ip2_0_split <- ip2
I0423 20:53:16.589697 68665 net.cpp:380] ip2_ip2_0_split -> ip2_ip2_0_split_0
I0423 20:53:16.589709 68665 net.cpp:380] ip2_ip2_0_split -> ip2_ip2_0_split_1
I0423 20:53:16.589745 68665 net.cpp:122] Setting up ip2_ip2_0_split
I0423 20:53:16.589751 68665 net.cpp:129] Top shape: 100 10 (1000)
I0423 20:53:16.589756 68665 net.cpp:129] Top shape: 100 10 (1000)
I0423 20:53:16.589761 68665 net.cpp:137] Memory required for data: 8086800
I0423 20:53:16.589764 68665 layer_factory.hpp:77] Creating layer accuracy
I0423 20:53:16.589772 68665 net.cpp:84] Creating Layer accuracy
I0423 20:53:16.589787 68665 net.cpp:406] accuracy <- ip2_ip2_0_split_0
I0423 20:53:16.589797 68665 net.cpp:406] accuracy <- label_mnist_1_split_0
I0423 20:53:16.589812 68665 net.cpp:380] accuracy -> accuracy
…
